…
[2025-11-20 02:08:35 swin_mamba_tiny_patch4_window7_224_cifar100] (main.py 352): INFO {"cfg": "/root/autodl-fs/vim-shiyan/swin_mamba_tiny_patch4_window7_cifar100.yaml", "opts": null, "batch_size": null, "data_path": "/root/autodl-fs/vim-shiyan/vim-main_1/data/cifar-100-python", "zip": false, "cache_mode": "part", "pretrained": null, "resume": null, "accumulation_steps": null, "use_checkpoint": false, "disable_amp": false, "amp_opt_level": null, "output": "output", "tag": null, "eval": false, "throughput": false, "fused_window_process": false, "fused_layernorm": false, "optim": null}
[2025-11-20 02:08:36 swin_mamba_tiny_patch4_window7_224_cifar100] (main.py 93): INFO Creating model:swin_mamba/swin_mamba_tiny_patch4_window7_224_cifar100
[2025-11-20 02:08:36 swin_mamba_tiny_patch4_window7_224_cifar100] (main.py 95): INFO SwinMamba(
  (patch_embed): PatchEmbed(
    (proj): Conv2d(3, 96, kernel_size=(4, 4), stride=(4, 4))
    (norm): LayerNorm((96,), eps=1e-05, elementwise_affine=True)
  )
  (pos_drop): Dropout(p=0.0, inplace=False)
  (layers): ModuleList(
    (0): BasicLayer(
      (blocks): ModuleList(
        (0): SwinMambaBlock(
          (norm1): LayerNorm((96,), eps=1e-05, elementwise_affine=True)
          (mamba): MambaBlock(
            (mixer): Mamba(
              (in_proj): Linear(in_features=96, out_features=384, bias=False)
              (conv1d): Conv1d(192, 192, kernel_size=(4,), stride=(1,), padding=(3,), groups=192)
              (act): SiLU()
              (x_proj): Linear(in_features=192, out_features=22, bias=False)
              (dt_proj): Linear(in_features=6, out_features=192, bias=True)
              (conv1d_b): Conv1d(192, 192, kernel_size=(4,), stride=(1,), padding=(3,), groups=192)
              (x_proj_b): Linear(in_features=192, out_features=22, bias=False)
              (dt_proj_b): Linear(in_features=6, out_features=192, bias=True)
              (out_proj): Linear(in_features=192, out_features=96, bias=False)
            )
            (norm): RMSNorm()
            (drop_path): Identity()
          )
          (drop_path): Identity()
          (norm2): LayerNorm((96,), eps=1e-05, elementwise_affine=True)
          (mlp): Mlp(
            (fc1): Linear(in_features=96, out_features=384, bias=True)
            (act): GELU(approximate='none')
            (fc2): Linear(in_features=384, out_features=96, bias=True)
            (drop): Dropout(p=0.0, inplace=False)
          )
        )
        (1): SwinMambaBlock(
          (norm1): LayerNorm((96,), eps=1e-05, elementwise_affine=True)
          (mamba): MambaBlock(
            (mixer): Mamba(
              (in_proj): Linear(in_features=96, out_features=384, bias=False)
              (conv1d): Conv1d(192, 192, kernel_size=(4,), stride=(1,), padding=(3,), groups=192)
              (act): SiLU()
              (x_proj): Linear(in_features=192, out_features=22, bias=False)
              (dt_proj): Linear(in_features=6, out_features=192, bias=True)
              (conv1d_b): Conv1d(192, 192, kernel_size=(4,), stride=(1,), padding=(3,), groups=192)
              (x_proj_b): Linear(in_features=192, out_features=22, bias=False)
              (dt_proj_b): Linear(in_features=6, out_features=192, bias=True)
              (out_proj): Linear(in_features=192, out_features=96, bias=False)
            )
            (norm): RMSNorm()
            (drop_path): DropPath()
          )
          (drop_path): DropPath()
          (norm2): LayerNorm((96,), eps=1e-05, elementwise_affine=True)
          (mlp): Mlp(
            (fc1): Linear(in_features=96, out_features=384, bias=True)
            (act): GELU(approximate='none')
            (fc2): Linear(in_features=384, out_features=96, bias=True)
            (drop): Dropout(p=0.0, inplace=False)
          )
        )
      )
      (downsample): PatchMerging(
        (reduction): Linear(in_features=384, out_features=192, bias=False)
        (norm): LayerNorm((384,), eps=1e-05, elementwise_affine=True)
      )
    )
    (1): BasicLayer(
      (blocks): ModuleList(
        (0-1): 2 x SwinMambaBlock(
          (norm1): LayerNorm((192,), eps=1e-05, elementwise_affine=True)
          (mamba): MambaBlock(
            (mixer): Mamba(
              (in_proj): Linear(in_features=192, out_features=768, bias=False)
              (conv1d): Conv1d(384, 384, kernel_size=(4,), stride=(1,), padding=(3,), groups=384)
              (act): SiLU()
              (x_proj): Linear(in_features=384, out_features=28, bias=False)
              (dt_proj): Linear(in_features=12, out_features=384, bias=True)
              (conv1d_b): Conv1d(384, 384, kernel_size=(4,), stride=(1,), padding=(3,), groups=384)
              (x_proj_b): Linear(in_features=384, out_features=28, bias=False)
              (dt_proj_b): Linear(in_features=12, out_features=384, bias=True)
              (out_proj): Linear(in_features=384, out_features=192, bias=False)
            )
            (norm): RMSNorm()
            (drop_path): DropPath()
          )
          (drop_path): DropPath()
          (norm2): LayerNorm((192,), eps=1e-05, elementwise_affine=True)
          (mlp): Mlp(
            (fc1): Linear(in_features=192, out_features=768, bias=True)
            (act): GELU(approximate='none')
            (fc2): Linear(in_features=768, out_features=192, bias=True)
            (drop): Dropout(p=0.0, inplace=False)
          )
        )
      )
      (downsample): PatchMerging(
        (reduction): Linear(in_features=768, out_features=384, bias=False)
        (norm): LayerNorm((768,), eps=1e-05, elementwise_affine=True)
      )
    )
    (2): BasicLayer(
      (blocks): ModuleList(
        (0-5): 6 x SwinMambaBlock(
          (norm1): LayerNorm((384,), eps=1e-05, elementwise_affine=True)
          (mamba): MambaBlock(
            (mixer): Mamba(
              (in_proj): Linear(in_features=384, out_features=1536, bias=False)
              (conv1d): Conv1d(768, 768, kernel_size=(4,), stride=(1,), padding=(3,), groups=768)
              (act): SiLU()
              (x_proj): Linear(in_features=768, out_features=40, bias=False)
              (dt_proj): Linear(in_features=24, out_features=768, bias=True)
              (conv1d_b): Conv1d(768, 768, kernel_size=(4,), stride=(1,), padding=(3,), groups=768)
              (x_proj_b): Linear(in_features=768, out_features=40, bias=False)
              (dt_proj_b): Linear(in_features=24, out_features=768, bias=True)
              (out_proj): Linear(in_features=768, out_features=384, bias=False)
            )
            (norm): RMSNorm()
            (drop_path): DropPath()
          )
          (drop_path): DropPath()
          (norm2): LayerNorm((384,), eps=1e-05, elementwise_affine=True)
          (mlp): Mlp(
            (fc1): Linear(in_features=384, out_features=1536, bias=True)
            (act): GELU(approximate='none')
            (fc2): Linear(in_features=1536, out_features=384, bias=True)
            (drop): Dropout(p=0.0, inplace=False)
          )
        )
      )
      (downsample): PatchMerging(
        (reduction): Linear(in_features=1536, out_features=768, bias=False)
        (norm): LayerNorm((1536,), eps=1e-05, elementwise_affine=True)
      )
    )
    (3): BasicLayer(
      (blocks): ModuleList(
        (0-1): 2 x SwinMambaBlock(
          (norm1): LayerNorm((768,), eps=1e-05, elementwise_affine=True)
          (mamba): MambaBlock(
            (mixer): Mamba(
              (in_proj): Linear(in_features=768, out_features=3072, bias=False)
              (conv1d): Conv1d(1536, 1536, kernel_size=(4,), stride=(1,), padding=(3,), groups=1536)
              (act): SiLU()
              (x_proj): Linear(in_features=1536, out_features=64, bias=False)
              (dt_proj): Linear(in_features=48, out_features=1536, bias=True)
              (conv1d_b): Conv1d(1536, 1536, kernel_size=(4,), stride=(1,), padding=(3,), groups=1536)
              (x_proj_b): Linear(in_features=1536, out_features=64, bias=False)
              (dt_proj_b): Linear(in_features=48, out_features=1536, bias=True)
              (out_proj): Linear(in_features=1536, out_features=768, bias=False)
            )
            (norm): RMSNorm()
            (drop_path): DropPath()
          )
          (drop_path): DropPath()
          (norm2): LayerNorm((768,), eps=1e-05, elementwise_affine=True)
          (mlp): Mlp(
            (fc1): Linear(in_features=768, out_features=3072, bias=True)
            (act): GELU(approximate='none')
            (fc2): Linear(in_features=3072, out_features=768, bias=True)
            (drop): Dropout(p=0.0, inplace=False)
          )
        )
      )
    )
  )
  (norm): LayerNorm((768,), eps=1e-05, elementwise_affine=True)
  (avgpool): AdaptiveAvgPool1d(output_size=1)
  (head): Linear(in_features=768, out_features=100, bias=True)
)
[2025-11-20 02:08:36 swin_mamba_tiny_patch4_window7_224_cifar100] (main.py 98): INFO number of params: 33498628
[2025-11-20 02:08:36 swin_mamba_tiny_patch4_window7_224_cifar100] (main.py 135): INFO no checkpoint found in output/swin_mamba_tiny_patch4_window7_224_cifar100/default, ignoring auto resume
[2025-11-20 02:08:36 swin_mamba_tiny_patch4_window7_224_cifar100] (main.py 153): INFO Start training
